data.pth (torch, 4119 bytes, 6 tensors)

l1.weight f4 [8, 35]
000000 1a ca f9 3e 7a ad 2a be 32 f1 76 be 59 0b 77 3e
       0.48787004 -0.16667739 -0.24115446 0.24125423
000010 1a 68 60 bd 98 88 91 be d2 59 9b 3e a8 50 5d 3c
       -0.05478678 -0.28424525 0.30341965 0.0135079995
000020 0d a4 45 be b7 33 ab 3e 56 d5 73 be 62 e4 2c 3f
       -0.19300862 0.33437893 -0.2381185 0.67535985
000030 5f 93 44 3e 9e 59 23 3f f8 b4 01 3f 7f 4a 10 3f
       0.19196843 0.6380862 0.5066676 0.5636367
000040 19 bf fb 3e 78 a4 5e be 5f 77 86 be 22 6d 91 be
       0.49169233 -0.21742427 -0.26262948 -0.28403574
000050 b1 13 8c 3e 22 70 e2 bd 34 1c 9a be ad ec 1c be
       0.27358773 -0.11056544 -0.30099642 -0.1532466
000060 ef f3 02 be d0 db 2b be 17 fd 3e be d8 d3 9f 3e
       -0.12788366 -0.1678307 -0.18651234 0.3121631
000070 1c 3f 04 3e ca 26 a9 3e ca 2f b5 3e 29 6a 07 3f
       0.129147 0.33037406 0.35388023 0.5289636
000080 67 dc f5 be fd 52 6f bb d9 96 10 be ea 93 61 be
       -0.48019716 -0.003651797 -0.14120044 -0.22029081
000090 77 c9 05 3f 97 2a 1a 3f b8 44 45 be f2 ad 0b 3f
       0.52260536 0.60221237 -0.19264495 0.54562294
0000a0 42 09 6b be d6 b9 a6 3d 20 e3 f4 3e 62 aa 96 3e
       -0.2295275 0.08140914 0.47829533 0.29426867
0000b0 af 68 27 be 15 ed 6a be 0b cd 28 3e ea 99 21 3d
       -0.16348527 -0.22942002 0.16484468 0.039453425
0000c0 96 a0 11 3e df b9 9a 3d 38 5d 43 bf 9e fe 15 3c
       0.14221415 0.07554983 -0.76314116 0.009154944
0000d0 9f 43 2c 3e f8 77 8a 3e a3 02 7e be 7b 0e 71 be
       0.1682267 0.27044654 -0.24805693 -0.2354068
0000e0 fa 8b 13 3f 3d 9a ba 3e e9 63 98 3e 58 4f a1 be
       0.5763546 0.364458 0.29763725 -0.31505847
0000f0 65 57 78 3e 55 a4 17 3f 6a 4c 9b be 89 5f 01 be
       0.24252088 0.59235126 -0.30331737 -0.126341
000100 f7 1a 3c bd 1f 94 e8 3b fd 2c 85 bc c7 ef 00 3f
       -0.045924153 0.0070977355 -0.016256804 0.5036587
000110 c9 ca aa 3e d8 19 ed 3e e6 98 ef 3e 82 32 30 3d
       0.33357838 0.4630878 0.4679634 0.043016918
000120 3f a8 1d 3f eb 9c cb 3c 80 1e a7 3e 10 50 dc be
       0.6158485 0.024855098 0.32640457 -0.43029833
000130 e4 bc fd bd 96 21 27 be f4 be 58 be f2 60 1c be
       -0.12389544 -0.16321406 -0.21166593 -0.15271357
000140 9e 51 dc be c6 11 48 be 2d 30 06 3f ed 5b 92 be
       -0.4303102 -0.1953803 0.5241726 -0.2858576
000150 78 43 46 be a3 bf f6 be 2a e6 80 be b5 3b 00 bf
       -0.19361675 -0.48193082 -0.251756 -0.50091106
000160 27 6e 7c bd 89 60 ad be e3 7e f8 3e af 1a 3d 3e
       -0.061628487 -0.33862713 0.48534307 0.1846721
000170 b8 6b b2 3e f1 b8 85 3e b5 ad cc be 17 3a 88 be
       0.34847808 0.26117662 -0.39976278 -0.2660682
000180 c5 b1 b4 bd e0 34 59 3f 89 a8 03 3f 13 43 1f be
       -0.08822969 0.84846306 0.5142904 -0.1555293
000190 94 2f c5 be 64 44 e1 be ae d6 16 3f 8c c2 9d 3e
       -0.38512862 -0.4399749 0.58921325 0.3081249
0001a0 75 30 c2 3e 80 22 27 be f3 90 00 3e 46 53 83 be
       0.37927595 -0.16321754 0.12555294 -0.2564947
0001b0 3f c7 20 3e 43 aa bd 3d 96 5e da be fb ec 02 3f
       0.15701006 0.092609905 -0.42650288 0.51142853
0001c0 f6 17 f4 3d 22 cb 3d 3e dd 20 c1 3e 11 4c e8 be
       0.11918633 0.1853452 0.37720385 -0.45370534
0001d0 a0 f9 29 3f 80 83 23 be 31 b8 05 3f 68 35 2c 3f
       0.6639652 -0.15968132 0.5223418 0.6726899
0001e0 07 d9 15 3f 51 fd f0 3d c7 b9 df 3e 90 e5 22 3e
       0.5853428 0.11767066 0.43696424 0.15907884
0001f0 b9 f4 09 be 34 c4 1d be 13 de 26 3e 79 7f 96 be
       -0.1347226 -0.15406877 0.16295652 -0.2939413
000200 a4 a1 4e be db 11 99 bd 48 ac 96 3e 4e c8 4b bb
       -0.20178849 -0.07474109 0.29428315 -0.0031094733
000210 01 b5 0c bf fa 28 68 be 7b c2 b6 3e 21 bb 99 3e
       -0.5496369 -0.22671881 0.35695252 0.3002558
000220 45 5a 71 3e 93 a6 ee be 9e d7 12 be d5 ef e7 be
       0.23569591 -0.4661146 -0.14340064 -0.45300165
000230 f0 8c 8b 3e 21 aa 85 bd 88 78 bb 3e 9f da 29 3d
       0.27255964 -0.0652659 0.36615396 0.04146826
000240 c8 55 44 be 7d 40 29 bc bf 0c 8e 3d f7 1e 0d be
       -0.19173348 -0.010330317 0.06936025 -0.13781343
000250 5e c3 7d bd 82 36 77 3e 5e c5 87 bd f1 ef 04 3d
       -0.061953895 0.24141887 -0.06629442 0.03245539
000260 87 63 df 3e 93 fc 89 3d a1 90 c7 3d a4 81 62 3e
       0.4363062 0.06737628 0.09744383 0.22119766
000270 ea 9e 97 3d d2 90 99 be 02 85 bd be 79 63 37 3e
       0.07403357 -0.29993302 -0.3701554 0.1790904
000280 2f f3 ef 3e 16 ee 87 be d2 24 0e 3e a8 26 5c 3e
       0.46865222 -0.26548833 0.13881233 0.21499121
000290 2a 0b af bd b2 af 9f be 77 ce 1e be 6d 31 59 3f
       -0.08547051 -0.31188732 -0.15508448 0.8484104
0002a0 53 1a eb 3e 26 73 8e bb bf 07 9d be 7c 7f a1 be
       0.4591852 -0.004347223 -0.30669972 -0.31542575
0002b0 75 0b ca be fb bd 24 3e b8 34 40 3e d7 38 98 be
       -0.39461866 0.16088097 0.1877011 -0.29730865
0002c0 b4 f0 28 3f 5e 4d 75 3d dc 79 8e 3e 88 0b 0b 3f
       0.65992284 0.059888236 0.27827346 0.5431447
0002d0 4b 7b 83 be a9 40 08 3f 4b ae 3f 3f b4 11 2f 3f
       -0.25680003 0.53223664 0.74875325 0.6838639
0002e0 14 2a a2 3e e5 35 7f be 69 42 1b 3f 62 6b 81 3b
       0.31672728 -0.24922903 0.6064821 0.0039495686
0002f0 2c 33 1e 3f 12 a8 20 3f b3 28 20 3f 7d 0f 82 3e
       0.6179683 0.62756455 0.625621 0.25402442
000300 21 33 67 3f b6 7f 3e 3f 03 3a 98 3d c8 74 81 be
       0.9031239 0.7441362 0.0743294 -0.2528441
000310 fe 62 45 3f 1b fc 22 3e 4a 3f 45 3e 53 8d 4b bd
       0.77104175 0.15916483 0.19262424 -0.049695324
000320 e9 14 26 3f 53 4c 44 3f 8a f4 19 bf ee 9c 7d be
       0.64875656 0.7667896 -0.6013876 -0.24766895
000330 14 80 ea 3e f6 b1 c4 3e 74 22 d7 3e a4 7c db 3e
       0.4580084 0.38417023 0.42018473 0.4286853
000340 38 9f 6f 3d 0c 66 7b 3d 1e 9a d3 3e 49 c9 12 3c
       0.058501452 0.061376616 0.4132852 0.008959123
000350 7e dc 56 3e 58 47 d0 3e 76 7d 05 3f 46 2f 0c bf
       0.20982549 0.4067943 0.52144563 -0.54759634
000360 66 ac 97 3e 82 f6 ce bc b8 88 88 bc cf 31 d4 3e
       0.29623717 -0.025264028 -0.016666755 0.4144425
000370 06 30 0c bf 14 ff 19 3f a6 6a bb 3b 66 45 1e 3f
       -0.5476078 0.60154843 0.0057195006 0.61824644
000380 ea 77 00 3f da 69 96 3e 9e e7 32 3e ed 54 4a be
       0.50182974 0.29377633 0.17471167 -0.19758959
000390 b4 19 ea 3c 1f 8e cc be c0 06 d5 3d b5 a4 4f 3d
       0.02857671 -0.3995218 0.10401678 0.050694186
0003a0 59 39 9b 3e 30 ef 7e 3e b2 76 a4 be 58 a3 51 be
       0.3031719 0.2489593 -0.32121807 -0.20472467
0003b0 1d d5 2f 3d a3 37 81 3e 4d 46 fd bd 30 2a a5 3e
       0.04292785 0.2523776 -0.123669244 0.3225875
0003c0 5d 84 f4 3e 17 97 f6 3e 82 ee 89 3e 41 46 31 3e
       0.47757235 0.48162147 0.2693978 0.17311956
0003d0 30 09 f2 3e 32 03 c4 3e b3 25 d0 bb 31 21 f9 3e
       0.47272635 0.38283688 -0.0063521503 0.48658136
0003e0 45 4f 8b 3e 67 d9 29 3f 34 23 73 be 49 e9 f8 3e
       0.27208915 0.66347355 -0.23743898 0.48615482
0003f0 44 68 19 bd 0c e2 05 be 35 41 f1 3e a8 2d 73 be
       -0.03745295 -0.13074511 0.47120062 -0.23747885

l1.bias f4 [8]
000000 fb eb 2d 3f a2 e4 6a 3e 6a 4c dc 3e 20 b5 0c 3f
       0.679382 0.22938779 0.4302705 0.54963875
000010 12 39 56 3f a9 56 1a 3f c0 2d 0c 3f e9 19 73 3e
       0.8368083 0.6028848 0.5475731 0.23740353

l2.weight f4 [8, 8]
000000 47 5e db bb 3e c0 50 3e 58 9a 89 bf 76 76 50 be
       -0.0066945883 0.20385835 -1.0750227 -0.2035769
000010 20 18 52 3f 40 2a 46 3f cd a9 88 bf 1f f3 8f bf
       0.8206806 0.7740822 -1.0676819 -1.124607
000020 9c 58 6b 3f 86 e9 3b bf 30 8e 2d 3e 87 51 42 be
       0.9193208 -0.73403203 0.16948771 -0.18976413
000030 dc 1a b3 3f 74 94 22 bd 72 6e 61 be cd 7c c6 be
       1.3992572 -0.039692357 -0.22014788 -0.3876709
000040 a0 2a 59 bd 75 4c 14 3f 5a 28 9c 3f 24 ba 8d bf
       -0.053019166 0.57929164 1.2199814 -1.1072431
000050 af 6e 03 3f 63 ca 54 3c 67 f5 1a 3f 3f af 30 3f
       0.51340765 0.012987706 0.60530704 0.69017404
000060 1d bf 43 3f 6c 78 3c bf 4a 86 84 3e e9 12 e3 bd
       0.7646349 -0.7362125 0.25883704 -0.11087591
000070 a6 e5 9a 3f 92 5c 18 be d5 e0 87 bd 27 c1 99 be
       1.2101333 -0.14879063 -0.0663468 -0.30030176
000080 ff 9b 66 3f 05 47 14 bf e6 ea d2 be 05 88 86 3f
       0.9008178 -0.5792087 -0.41194838 1.051026
000090 f4 44 98 3e b0 7b 32 be 50 92 2e 3f 1a cd 85 3e
       0.29740107 -0.17429996 0.68192005 0.26133043
0000a0 2a c5 fe 3e e6 e3 2a 3f 91 b7 53 bf 46 87 76 3f
       0.497598 0.66753995 -0.82701975 0.9630016
0000b0 0b af c3 be f9 90 ab 3f 9f ea 59 3f f2 cb 57 3f
       -0.38219485 1.3403617 0.8512363 0.8429557
0000c0 08 f7 d9 3e 6e fc d5 3e 6c e3 80 3f 09 e0 0f bf
       0.42571282 0.4179415 1.0069404 -0.56201226
0000d0 c2 ea 00 3f 2c c1 d8 bc 04 3e 84 3f 7d 50 34 3f
       0.5035821 -0.026459299 1.0331426 0.70435315
0000e0 ec b6 40 3f 86 1b ab be 8d 5c e8 3e 25 27 84 3f
       0.75279117 -0.33419436 0.4538311 1.0324446
0000f0 58 91 84 3e 86 e5 bb bd a1 f0 45 3f a5 40 40 3f
       0.25892138 -0.091746375 0.77320296 0.7509864

l2.bias f4 [8]
000000 b6 fc 59 3f 3b 11 8d 3f 7c 2a 83 be 44 c2 74 3f
       0.8515123 1.1020883 -0.2561835 0.95608926
000010 92 e0 6b 3e a6 66 06 3f ce 9f ec be f0 31 07 bf
       0.23034886 0.5250038 -0.4621567 -0.52810574

l3.weight f4 [5, 8]
000000 52 92 2f bf b9 fa 3d bf 13 78 5e 3f f5 02 13 bf
       -0.6858264 -0.742107 0.8690197 -0.5742639
000010 1c b4 6a bf 0a f9 86 bd 7b ad 2a 3f ee 83 31 bd
       -0.91681075 -0.06590469 0.6667096 -0.04333871
000020 0f 7c 71 3f b5 ed 04 bf ed ba 06 bf a7 91 85 bf
       0.94329923 -0.5192521 -0.52628976 -1.0435075
000030 a8 e3 19 bf 6d 57 4f 3f a8 71 59 bf 69 43 b8 be
       -0.60113 0.80992776 -0.8493905 -0.3598893
000040 0d 32 a3 3f c3 57 71 3f 88 57 91 bf dd bb 86 3f
       1.2749649 0.9427454 -1.1354837 1.0526081
000050 b3 82 d2 3d e4 a0 64 be 6d 78 ca bf 49 1a b3 bf
       0.10278835 -0.22327 -1.5818001 -1.3992397
000060 9e 87 84 bf 1f 2b 55 bd e2 90 0a bf 77 9d 8a bd
       -1.0353887 -0.052043077 -0.54127324 -0.06768315
000070 65 c2 14 3f 53 2d 9c 3e 0c a2 8e bd ee 59 33 3f
       0.5810912 0.3050333 -0.06964502 0.70059097
000080 78 1e 5c bf aa fe 9d 3e f0 ca fb 3e c5 b5 c3 3e
       -0.8598399 0.30858356 0.49178267 0.38224617
000090 08 47 b6 bb db a8 9f bf 73 2f 1e 3f ce 52 51 3e
       -0.005562667 -1.2473406 0.6179115 0.20441744

l3.bias f4 [5]
000000 ea 2d 2d bd 10 35 c8 3e a8 95 1b 3e e0 4f 0f bf
       -0.042280115 0.39102983 0.15193808 -0.55981255
000010 6d 0d b0 be
       -0.34385243
