data.pth (torch, 5079 bytes, 6 tensors)

l1.weight f4 [8, 54]
-0.25727886 0.57818806 -0.033317655 -0.33573768 0.048559375 0.053732842 0.097324334 -0.1736951
0.12778336 -0.03353749 -0.08803948 0.15757625 0.73964113 0.0029361397 0.36491188 0.239046
-0.24601193 0.05444049 0.6130377 -0.3340093 -0.04414946 -0.33404222 -0.33410653 -0.60003686
0.33104947 -0.35063007 0.68414503 0.47372556 0.4282044 0.5005706 -0.049081147 -0.13204217
-0.1663456 -0.24968109 0.5093812 0.33263525 0.44570485 0.14605549 0.07133877 0.27735656
-0.051958192 0.5814608 -0.04929526 0.32570547 -0.1290662 0.5050389 -0.5760158 -0.03266065
0.35235077 0.6127527 0.37116474 0.35818473 0.19324502 0.2515354 0.26291785 -0.28504255
0.23608416 0.38539878 0.40543586 0.725092 0.25621772 0.36851695 0.20014392 0.16441242
0.39260316 -0.22725263 -0.2684248 -0.24052924 -0.22642595 -0.1643276 0.22172421 0.785056
-0.43808395 0.73711824 0.15691021 0.43617526 0.33575892 -0.12512334 0.039837025 0.2978989
-0.44299412 -0.2549179 -0.2936018 -0.25241858 0.39677414 -0.32819897 0.31511733 0.22260286
-0.20807393 -0.12193041 -0.3035003 0.06006721 0.2953224 0.33989394 0.46311313 -0.5873353
-0.1850692 -0.203082 -0.080492266 -0.40192544 0.18256043 0.12665983 0.083889425 -0.48850864
-0.21887343 -0.25165793 0.3036628 0.36981755 0.5234288 0.014808988 -0.12849368 0.44208232
0.2444773 -0.6015857 -0.1792254 -0.14546983 -0.39913082 -0.0788443 0.36983645 -0.09580139
0.061016556 -0.19524358 -0.22483085 -0.025213396 0.43541363 -0.557067 0.4381677 0.5398413
0.31136608 0.74777853 0.59082246 0.1650768 0.024829682 0.45764765 0.3113399 -0.4074471
0.09194032 -0.34186113 -0.3252865 -0.3406721 0.33002806 -0.20559488 -0.1329381 -0.07861272
0.21900095 -0.51754236 0.00052882254 -0.043321658 -0.40417138 0.2581294 -0.11537044 -0.16325215
-0.20686251 -0.153031 0.6190708 0.44551927 0.5070353 0.37435916 0.18337059 0.19836313
-0.2093965 0.18944469 -0.03367273 0.38012397 -0.5334467 0.14796138 0.34073186 -0.5296986
-0.050197612 -0.23914716 -0.49587148 -0.26374874 0.24461377 -0.09024403 0.36660314 -0.14057738
0.37218904 -0.088394016 0.270982 -0.5297222 0.4971865 0.6801285 0.14541094 0.46815217
0.4977348 0.30358538 -0.09961866 0.15413542 0.663187 0.31113404 0.48426476 0.28451216
-0.38891494 -0.20361903 0.09143273 -0.48595583 0.24773882 -0.3164789 0.46478584 -0.46881077
-0.16410798 -0.11877219 -0.38028872 0.67207783 -0.08999565 0.2851678 -0.39897892 0.2356565
0.0307947 0.109725274 0.46744767 0.6592921 -0.30190673 0.47731468 -0.09696894 0.2413546
-0.15633878 0.42822194 0.53377014 -0.14712794 0.24611932 -0.30154398 0.45693997 0.29555085
0.5448242 0.28639382 -0.10070714 -0.24821319 0.40458587 -0.19418216 0.44873995 -0.2932413
-0.20079829 -0.30133167 -0.32614318 -0.3013533 0.0019745517 -0.30134875 -0.3013659 -0.4494125
0.3976864 -0.30400586 -0.18924378 0.6029927 0.26226062 0.46100685 -0.29161027 -0.07333949
-0.17132111 0.45287764 0.64080507 -0.2770826 0.19748159 0.575574 0.34884498 0.5456696
00000000: 0eba 83be 2204 143f 1878 08bd cfe5 abbe
00000010: 32e6 463d f816 5c3d fb51 c73d 21dd 31be
00000020: a4d9 023e 9b5e 09bd 0b4e b4bd ab5b 213e
00000030: 1f59 3d3f 406c 403b bbd5 ba3e 7ac8 743e
00000040: 8dea 7bbe fefc 5e3d 0af0 1c3f 4403 abbe
00000050: 10d6 34bd 9507 abbe 0310 abbe 049c 19bf
00000060: 517f a93e c985 b3be 2124 2f3f 288c f23e
00000070: 9b3d db3e 6525 003f 5009 49bd 1036 07be
00000080: 8056 2abe 66ac 7fbe ce66 023f 2b4f aa3e
00000090: 6d33 e43e 928f 153e 101a 923d ae01 8e3e
000000a0: 1dd2 54bd 9dda 143f d4e9 49bd dec2 a63e
000000b0: ee29 04be 3b4a 013f c575 13bf 2cc7 05bd
000000c0: 5267 b43e 5cdd 1c3f 4e09 be3e fd63 b73e
000000d0: 06e2 453e 3fc9 803e 2b9d 863e 19f1 91be
000000e0: 0cc0 713e fd52 c53e 4a95 cf3e a19f 393f
000000f0: f82e 833e 41ae bc3e 87f2 4c3e bb5b 283e
00000100: 4803 c93e eab4 68be fa6e 89be 4c4d 76be
00000110: 34dc 67be 7f45 28be ac0b 633e 6ef9 483f
00000120: 8a4c e0be c8b3 3c3f 12ad 203e 5d52 df3e
00000130: 98e8 ab3e 5520 00be 262c 233d 3486 983e
00000140: 20d0 e2be 9984 82be fa52 96be 023d 81be
00000150: fb25 cb3e b209 a8be 0f57 a13e 01f2 633e
00000160: 5511 55be a7b6 f9bd 6464 9bbe 0909 763d
00000170: 7f34 973e 9406 ae3e 2a1d ed3e 9b5b 16bf
00000180: c882 3dbe baf4 4fbe 21d9 a4bd 2cc9 cdbe
00000190: 1ff1 3a3e 1db3 013e 38ce ab3d ce1d fabe
000001a0: 5b20 60be 4fd9 80be b179 9b3e ba58 bd3e
000001b0: 6eff 053f 66a1 723c d993 03be 9d58 e23e
000001c0: 4258 7a3e 8501 1abf dd86 37be 0bf6 14be
000001d0: e05a ccbe 1f79 a1bd 345b bd3e 8533 c4bd
000001e0: 7fec 793d efed 47be 0f3a 66be 538c cebc
000001f0: 89ee de3e f19b 0ebf 8457 e03e 0a33 0a3f
00000200: 606b 9f3e 6a6e 3f3f 2440 173f e509 293e
00000210: 9e67 cb3c cb50 ea3e f267 9f3e e89c d0be
00000220: 354b bc3d 6c08 afbe f48b a6be 936c aebe
00000230: 70f9 a83e 7787 52be ed20 08be b5ff a0bd
00000240: c941 603e a87d 04bf aea0 0a3a 0d72 31bd
00000250: 8def cebe 8929 843e 5647 ecbd 922b 27be
00000260: c4d3 53be 29b4 1cbe 6d7b 1e3f 1a1b e43e
00000270: 11cd 013f 01ac bf3e 80c5 3b3e b41f 4b3e
00000280: 096c 56be cafd 413e 6bec 09bd 9c9f c23e
00000290: f78f 08bf 3083 173e 6874 ae3e 549a 07bf
000002a0: 039c 4dbd fee2 74be dee2 fdbe 130a 87be
000002b0: 087c 7a3e ddd1 b8bd 68b3 bb3e 84f3 0fbe
000002c0: 908f be3e ec07 b5bd 27be 8a3e e09b 07bf
000002d0: 3b8f fe3e e71c 2e3f 9be6 143e a4b1 ef3e
000002e0: 19d7 fe3e 8b6f 9b3e de04 ccbd add5 1d3e
000002f0: a0c6 293f f64c 9f3e 8df1 f73e 94ab 913e
00000300: dc1f c7be 8281 50be 1541 bb3d 34cf f8be
00000310: 3faf 7d3e 8609 a2be 69f8 ed3e f707 f0be
00000320: ec0b 28be d53e f3bd 34b5 c2be 4b0d 2c3f
00000330: a44f b8bd 8401 923e f746 ccbe f04f 713e
00000340: 2b45 fc3c a5b7 e03d 4d55 ef3e 5ec7 283f
00000350: 8593 9abe 9762 f43e a797 c6bd a925 773e
00000360: 4617 20be e83f db3e 29a5 083f b5a8 16be
00000370: b406 7c3e f963 9abe 09f4 e93e 7152 973e
00000380: 9979 0b3f 36a2 923e 8c3f cebd 992b 7ebe
00000390: e125 cf3e b0d7 46be 3ec1 e53e b923 96be
000003a0: 119e 4dbe 2548 9abe 3dfc a6be fb4a 9abe
000003b0: 7b67 013b 624a 9abe a24c 9abe 6519 e6be
000003c0: 8d9d cb3e a8a6 9bbe 1fc9 41be bb5d 1a3f
000003d0: 0647 863e 1709 ec3e f14d 95be 0433 96bd
000003e0: cd6e 2fbe 94df e73e cd0b 243f c5dd 8dbe
000003f0: 9d38 4a3e d158 133f cf9b b23e 01b1 0b3f

l1.bias f4 [8]
0.33400214 1.0394325 0.67350584 0.52969486 0.30132046 0.8324337 0.48790917 0.59439343
00000000: 5402 ab3e 200c 853f e16a 2c3f 159a 073f
00000010: ad46 9a3e 601a 553f 3bcf f93e 2b2a 183f

l2.weight f4 [8, 8]
-0.22133204 1.240624 1.365446 1.2005159 -1.2522454 -0.21466087 1.1336591 0.5908797
0.2669305 -0.31972656 -0.24774925 0.13713479 -0.33588734 -0.1718378 -0.22913705 0.04241663
0.91721547 0.22776502 -0.43659562 -0.7646421 1.1771392 0.95519465 0.32882166 -0.077128544
-0.9252837 0.85792416 1.283544 -0.1491785 0.5689916 -0.46753293 1.0750964 1.0828491
-0.46357283 0.5086308 0.8711945 0.7548291 -0.3256464 0.07196034 -1.3513619 0.5475074
1.1038536 -0.9195274 0.9882171 1.3186029 0.5005829 1.2584847 -1.1116941 0.44774562
-0.069807716 0.87082314 0.21430598 -0.38749158 -0.57507336 1.1173798 -0.7318507 -0.46556035
0.15034336 0.67660826 -0.5850559 0.05223932 1.1646191 -0.06748573 -0.31298268 0.48913553
00000000: dea4 62be c4cc 9e3f efc6 ae3f 81aa 993f
00000010: 9449 a0bf 0fd0 5bbe be1b 913f e443 173f
00000020: 1dab 883e 33b3 a3be fbb1 7dbe 106d 0c3e
00000030: 6df9 abbe 40f6 2fbe e7a2 6abe 0fbd 2d3d
00000040: a2ce 6a3f 3c3b 693e 7689 dfbe 96bf 43bf
00000050: 7fac 963f a387 743f 505b a83e 92f5 9dbd
00000060: 64df 6cbf eba0 5b3f 2b4b a43f 40c2 18be
00000070: 6fa9 113f 7a60 efbe c29c 893f cd9a 8a3f
00000080: 6b59 edbe a135 023f 9a06 5f3f 7b3c 413f
00000090: 20bb a6be f15f 933d 6df9 acbf 7229 0c3f
000000a0: 134b 8d3f 2666 6bbf ccfb 7c3f fbc7 a83f
000000b0: 3326 003f 0716 a13f fe4b 8ebf ea3e e53e
000000c0: 59f7 8ebd 44ee 5e3f 0773 5b3e 4c65 c6be
000000d0: 0238 13bf 4d06 8f3f 915a 3bbf ed5d eebe
000000e0: 9cf3 193e 3336 2d3f 39c6 15bf e6f8 553d
000000f0: 3d12 953f f535 8abd 443f a0be f96f fa3e

l2.bias f4 [8]
0.77108103 -0.3168146 0.25914598 0.60598356 -0.23569031 0.3613729 0.81049204 0.18520258
00000000: 9165 453f 8635 a2be c8ae 843e bd21 1b3f
00000010: cd58 71be de05 b93e 687c 4f3f bfa5 3d3e

l3.weight f4 [7, 8]
-1.115951 -0.07969769 0.31455567 -0.8422507 -1.2684853 0.5344314 0.91522783 -0.82494843
-0.73187155 -0.15401824 0.5729192 -0.8074981 -1.0997292 0.5710352 -1.3289406 0.68910885
0.29384905 0.2856342 0.28201216 -0.26782146 -1.2176938 -1.157474 0.92025286 0.29149702
0.01120456 -0.09503529 -1.4260048 0.08854284 1.1771063 0.010606562 0.30928662 -0.058752015
0.06084704 -0.24626149 -0.66990066 -1.415566 0.25193003 0.7032611 -0.003489056 -0.45788857
-0.20400673 0.30826548 0.89774567 0.34808373 -0.69153273 -0.6191781 -1.4704179 0.7772397
0.62411875 -0.15862927 -1.2027265 0.496993 -0.7516946 -0.8835826 -1.209354 -0.21238273
00000000: 7bd7 8ebf 8b38 a3bd 710d a13e be9d 57bf
00000010: ba5d a2bf 7fd0 083f 5f4c 6a3f d22f 53bf
00000020: ef5b 3bbf f5b6 1dbe d5aa 123f 32b8 4ebf
00000030: edc3 8cbf 5d2f 123f ba1a aabf 7069 303f
00000040: 6273 963e a53e 923e e663 903e e51f 89be
00000050: 64dd 9bbf 1c28 94bf b195 6b3f 193f 953e
00000060: 5593 373c dda1 c2bd 5387 b6bf f355 b53d
00000070: 6bab 963f 25c7 2d3c d15a 9e3e f4a5 70bd
00000080: bf3a 793d f92b 7cbe 9c7e 2bbf 4431 b5bf
00000090: f9fc 803e eb08 343f a5a8 64bb 5f70 eabe
000000a0: 24e7 50be f9d4 9d3e a9d2 653f 0838 b23e
000000b0: 4a08 31bf 7582 1ebf a736 bcbf 2ef9 463f
000000c0: 3fc6 1f3f b66f 22be f1f2 99bf de75 fe3e
000000d0: 0f6f 40bf 7832 62bf 1dcc 9abf dc7a 59be

l3.bias f4 [7]
-0.14853634 0.049455293 0.48358887 -0.33780193 -0.26353115 -0.33766678 0.24435398
00000000: e919 18be a291 4a3d f698 f73e 60f4 acbe
00000010: 8eed 86be a9e2 acbe ee37 7a3e
