data.pth (torch, 4503 bytes, 6 tensors)

l1.weight f4 [8, 40]
00000000: faa8 1cbe fa95 c4bd a45d 033d d8d0 b3bc
00000010: b062 85bd 505e cebc 7307 a2bd 02cd 07be
00000020: 0820 02bd e26d 873c e60e 9d3d e27a ae3d
00000030: a84c eebd 8495 d1bd df47 12be 783b 803d
00000040: fadc 1bbe 2811 ff3c b188 003e a8e5 5d3d
00000050: 8a63 babd 581b e5bd 0e46 f8bd 8613 a83d
00000060: 0669 c63d 36ff dabd 6803 01be 5367 c63d
00000070: 1f9d 1f3e 5d7f c2bd 8b86 03be 2cc2 16bd
00000080: 5af3 05be 30d2 85bc 805c c2bc d864 e4bd
00000090: 468d e0bd 420c 5bbd 8e02 f83d a6f2 8a3d
000000a0: f21b 643d c621 83be 306c 163f aef1 433e
000000b0: 220c 063f 8b53 af3e fe10 413f 3614 b63e
000000c0: f171 3a3d 3688 6ebe daf3 a93e 091c 473f
000000d0: 39b1 193f 82f2 11bf 4fba 4b3f e28e 273f
000000e0: 5bc6 843e a007 513e 9676 ed3e 028a cebd
000000f0: 7915 153d 90b7 1a3f 6f74 80be 6c15 1d3d
00000100: 0005 ae3e a4f7 723e 5157 0a3f 634a b7bc
00000110: 1a1e 313e 4f74 293e d762 4bbf f671 d7be
00000120: f013 a93e 5ebe 723e 697a 7dbf bb21 103f
00000130: 40b6 f53e 51b6 4d3e 3b53 bc3d da70 f83e
00000140: 6e6b 723e c788 233f 5585 933d a091 ef3d
00000150: 41a4 20be 9373 8c3e f524 c1be a6ea 743e
00000160: a54c 2c3f 5842 383f eeee 023e 7a25 c1be
00000170: 2fe6 9b3e 3f5e 643e 4a39 b93d c9ae 913d
00000180: 4f8f 2a3d a140 493e 8bae 543d 13cd 403f
00000190: f215 333f 8af2 48be 0de8 5cbd f882 373f
000001a0: 834f 0d3e e83b 233e 55c1 9cbe 21dd 2c3f
000001b0: a8f8 933e b867 443f 9287 8b3e 7f92 8d3e
000001c0: b2bb c4bd 670e 333e 121d e93d 122d 9dbd
000001d0: f12a ff3d c6ce 8d3e 58ff 303e 4d18 58bd
000001e0: d5d7 213f cdf2 303e bdeb 8ebd c8dd 66bd
000001f0: 2d75 e9bd 24b8 94be 8d6f f4bc c5f8 09be
00000200: 61f8 47be 5e35 39be e9b8 58be 307c ecbe
00000210: 199c 8cbe 633e 0c3f 54fe b4be 765f b7be
00000220: 01fe 11be 87c4 263c 6981 ecbd ed25 b7be
00000230: 604d bfbe 508b 5bbe 74f3 0d3f 6c6f 56be
00000240: 652f d1bd d228 47be 5297 cbbe 095d 72bb
00000250: 74c1 a6bd ca2c cbbd 2c25 893f 2333 263f
00000260: cd7d 0bbe 81b5 dcbd 2154 253f c806 b1be
00000270: d042 84be 802d 0cbe a7ea 913e c168 e4bd
00000280: 5606 cb3e 6714 283e 55e5 4cbd 7cf0 4bbe
00000290: f69f 76be 7779 b8be d0a7 08bc 95d9 92be
000002a0: f2ca 67be 81ed 40be 7950 0bbe c06b d73e
000002b0: 3590 02bf acac 123f 3779 dabe 5c1f eebe
000002c0: 63af 99be 83ae 9d3c 07b2 04be d920 e0be
000002d0: f972 dabe ca1c 2f3d 6716 ac3e 591e 7abe
000002e0: 9637 b4be acb7 32be 4e59 6f3e 3618 363b
000002f0: 6905 033d 44fc e3bd d0f5 6c3f b3a4 fa3e
00000300: 0e37 39bd 8b94 133d 3ac5 643f 9b92 a6be
00000310: 71ac 4abe 727d bfbe 4e60 ca3e bece 00be
00000320: 5f2d b63e 9769 943e 9c0a ba3e 1315 973e
00000330: 3a3d dd3e bdf0 b13e ae23 0dbf e5c9 e33e
00000340: 0acf db3d 4dbc 7a3d 3d02 f53e c27a 02bf
00000350: 01b1 f83e a470 083e 258e f33e d920 2a3f
00000360: 5905 d23e b554 853e d1f4 a33e 7a40 083e
00000370: a2c6 b13d 4a60 88be f61d 5cbc c43a a13e
00000380: 2c08 9e3e f2d3 d63e 86f8 c4be 8527 3cbc
00000390: b5af d63e 15f5 2b3e 2a10 47be f398 08bd
000003a0: 95df 903e b120 db3e 700e 93be e2e8 ce3e
000003b0: fc34 df3e 0e7d e73e 2a1a ad3e 9a12 d63e
000003c0: 241c 853e 5404 f33e 22c5 1fbf 5bde cebd
000003d0: 23db 243c d07e 10bf ec68 2b3f fbd5 67be
000003e0: bd4d 733e 494c d23e 6f99 9bbe fb3e 343f
000003f0: d432 bdbe 5c32 0f3f be70 a7be a939 dbbe
-0.15298834 -0.09598918 0.032071725 -0.02195017 -0.06512964 -0.025191456 -0.07911577 -0.13261798
-0.03176883 0.016531888 0.07668857 0.08519532 -0.11635715 -0.10233596 -0.14285229 0.06261343
-0.15221015 0.03113611 0.12552144 0.054174095 -0.09101017 -0.11186856 -0.12122737 0.08206849
0.096880004 -0.10693209 -0.12598956 0.09687676 0.1558728 -0.09496949 -0.12844293 -0.03680627
-0.13081113 -0.016335577 -0.023725748 -0.11152047 -0.10964446 -0.053478487 0.12109862 0.06784563
0.055690713 -0.25611705 0.5875883 0.19135162 0.52362263 0.34243426 0.75416553 0.35562295
0.04551882 -0.23294148 0.33193856 0.77777153 0.60036045 -0.5701066 0.7958116 0.65452397
0.25932583 0.20413065 0.46379536 -0.10084917 0.03639743 0.60436344 -0.25088832 0.038350508
0.3398819 0.2372728 0.54039484 -0.022374338 0.17296639 0.16548274 -0.7944769 -0.42079133
0.33023024 0.23705432 -0.9901491 0.5630147 0.47990608 0.2008908 0.091955625 0.485236
0.23673794 0.6388058 0.072031654 0.11697698 -0.15687658 0.27431926 -0.37723508 0.23917636
0.6730445 0.7197623 0.12786457 -0.37723905 0.30449054 0.22301577 0.0904413 0.07113416
0.041640576 0.1965356 0.05192427 0.7531292 0.6995536 -0.19623771 -0.05393224 0.7168422
0.13799863 0.15940821 -0.3061625 0.67524916 0.28900647 0.7672076 0.2725187 0.2765083
-0.096061125 0.17485963 0.11382498 -0.07674612 0.12459362 0.27696818 0.17284906 -0.05275755
0.6321996 0.17280121 -0.06978557 -0.05636385 -0.11399303 -0.29046738 -0.029838348 -0.13473804
-0.19528343 -0.18086764 -0.21164288 -0.46188498 -0.27462843 0.54782695 -0.35350287 -0.35815018
-0.14257051 0.010178692 -0.115481205 -0.35771123 -0.3736372 -0.21439862 0.55449605 -0.20940942
-0.10214118 -0.19449165 -0.39763886 -0.0036981723 -0.08142367 -0.09920652 1.0714469 0.6492178
-0.13622208 -0.107768066 0.64581496 -0.34575486 -0.25832224 -0.13689232 0.28499338 -0.11152793
0.3965327 0.16414033 -0.050023396 -0.19915956 -0.24084458 -0.3603017 -0.008340791 -0.28681627
-0.22636011 -0.188406 -0.13604917 0.42074394 -0.5100129 0.57294726 -0.42670605 -0.465083
-0.30016622 0.019248253 -0.12958537 -0.4377506 -0.42665842 0.042752065 0.33610842 -0.24425639
-0.3519866 -0.17452878 0.23373911 0.0027785427 0.03198758 -0.111321 0.9256258 0.4895378
-0.04521852 0.036030333 0.89363444 -0.32533726 -0.19792344 -0.37400395 0.395266 -0.12578866
0.3558149 0.2898681 0.3633622 0.29508266 0.43210775 0.3475398 -0.5513257 0.4448997
0.10732849 0.061214734 0.4785327 -0.50968564 0.48572543 0.13324219 0.47569385 0.6645637
0.41019705 0.2604119 0.32022718 0.13305846 0.08680464 -0.26635963 -0.013434878 0.31490147
0.3086561 0.41958576 -0.38470858 -0.011484032 0.4193093 0.1679271 -0.1943976 -0.03334899
0.2829558 0.4279838 -0.28721952 0.4041205 0.4359511 0.45212597 0.33809024 0.41811067
0.25998032 0.4746424 -0.62410176 -0.10101005 0.010062012 -0.564435 0.66956973 -0.22640221
0.23760124 0.41073826 -0.30390498 0.704086 -0.3695284 0.5593622 -0.32703203 -0.4281743

l1.bias f4 [8]
00000000: c80d 03be 027c 7d3f ad21 c13e 8b4c fc3e
00000010: 07fe 073f af69 143f 6d2c 0c3f aec3 203f
-0.12798226 0.99017346 0.37721005 0.49277148 0.5312199 0.5797376 0.5475529 0.62798584

l2.weight f4 [8, 8]
00000000: d147 8a3e bbcb acbe 1407 6fbe a402 d8bd
00000010: b864 35bd 8799 aabe 308d a1be 2da5 923e
00000020: ecf8 de3d e393 523f 21b8 473e aea6 823d
00000030: c399 44be 72ca 743f fa1d 1abf 41c5 17bf
00000040: ffc4 713e 7f3f 943f 8ed0 12be 0847 57bf
00000050: 0c88 38bf 0ad6 2d3f 389e 533f 7071 833f
00000060: d6f4 b1be 1e9f 0a3f 9ac0 2a3f 231a 20bf
00000070: 37af 7bbe 3890 a3be fd8d 263f 4d18 6b3f
00000080: 014d ab3e d13a 183f 37e5 5dbf 78f3 523f
00000090: 09ad 803f 3440 babe b8ea 163f 2b1b c83e
000000a0: f81e 78bd d29d f3bd 009b e1bb 8edd 3f3e
000000b0: 0657 a2be aeb2 b1be 9c03 aebe 20e0 22bc
000000c0: 6c89 09bd 18d1 173f 8afb 503f f9af 0ebf
000000d0: 8d56 40bf 6215 723f f74e 77be 7df0 9bbe
000000e0: 18e7 8bbe c43c 05bf d460 803f 7cf0 ac3f
000000f0: c273 773f 35de e93e dd07 873f f10c 083f
0.27007917 -0.33749184 -0.23342544 -0.10547379 -0.044285506 -0.33320257 -0.3155303 0.28641644
0.10887322 0.8225691 0.19503833 0.06379448 -0.1919928 0.9562141 -0.6020199 -0.5928536
0.23610304 1.1581877 -0.1433737 -0.8409276 -0.7208259 0.6790472 0.826633 1.0268993
-0.34757107 0.54149044 0.66700137 -0.6253988 -0.24578558 -0.31945968 0.65060407 0.91833955
0.33457187 0.59464747 -0.8667788 0.82402754 1.0052806 -0.36377108 0.589519 0.39083228
-0.06057641 -0.11895336 -0.0068849325 0.1873686 -0.3170702 -0.34706634 -0.3398713 -0.009941131
-0.03357832 0.59303427 0.8163382 -0.5573726 -0.75132066 0.9456388 -0.24151216 -0.30456915
-0.27324748 -0.52045846 1.002955 1.351089 0.9666101 0.45677343 1.0549275 0.53144747

l2.bias f4 [8]
00000000: ecf7 c3bd 90df bf3e 345f b03e 06fb ddbe
00000010: bdb6 ba3e b8e6 dabd 602e d43e 6442 0c3f
-0.09568772 0.37475252 0.34447634 -0.43355578 0.36467543 -0.10688537 0.4144163 0.54788804

l3.weight f4 [9, 8]
00000000: 4305 973e 4299 503f 5390 6e3e f768 22bf
00000010: 669d 19bf 53c4 85be c526 573f 707f 88be
00000020: 1dd9 8f3e f39a 9fbf bdf9 903e 94a8 153f
00000030: 4966 b5bf 4adf 153e a3c2 673e 2b78 4b3e
00000040: 98e7 933d 50c1 bfbf 56ef 143f b859 8a3e
00000050: d6c8 113f 40bb 61bd 065a 77bf ae3e 9ebe
00000060: 402b 17bc 985d a1bf 5157 03bf 2bb4 32bf
00000070: b543 10bf 532c 9ebe 69ea 08be 702c 58bf
00000080: d840 39bd c245 87bf 3de0 d9be 82b7 16be
00000090: 4838 63bf d756 20be 2e25 c4bd aba2 4abf
000000a0: fc6f 97be 0fa1 83bf efed e4be 1b49 a2be
000000b0: a914 6cbf ccc0 d73d 7bfd dcbe 2df0 efbe
000000c0: fd79 9b3e 6af7 76bf 243b 37bf f410 89be
000000d0: cde6 13bf b413 81be 16f5 0dbf 489e 14bf
000000e0: e865 063d 9301 93bf d8cd 11bf 8402 c2bf
000000f0: 2b1e 1a3f e3a2 acbe 2270 24bf 1080 203f
00000100: 68ac 1e3d c4ab 7fbf 1b3c 2abf ba57 f9be
00000110: 04e3 7bbf f8fe 92bd ae53 c2bd 4949 b0be
0.29496202 0.8148385 0.23297243 -0.63441414 -0.60005796 -0.26126346 0.8404353 -0.26659727
0.28095332 -1.2469162 0.28315535 0.58460355 -1.417184 0.1463596 0.22632842 0.19870059
0.072219074 -1.4980869 0.581777 0.27021575 0.56947076 -0.055110216 -0.9662174 -0.30907196
-0.00922662 -1.2606688 -0.5130511 -0.69806165 -0.5635331 -0.30893192 -0.1337067 -0.84442806
-0.045227855 -1.0568163 -0.42553893 -0.1471844 -0.88757753 -0.15658127 -0.09577404 -0.7915446
-0.29577625 -1.0283526 -0.4471278 -0.316964 -0.92219025 0.1053482 -0.4316214 -0.46862927
0.30366507 -0.96471274 -0.71574616 -0.26770747 -0.5777405 -0.25210345 -0.55452096 -0.5805402
0.03281203 -1.1484855 -0.5695472 -1.5157018 0.6020228 -0.33718023 -0.642336 0.6269541
0.03873864 -0.9987147 -0.66497964 -0.48699743 -0.98393273 -0.07177538 -0.09488617 -0.34430912

l3.bias f4 [9]
00000000: fa51 053f e587 d6be 5963 593d 8736 06be
00000010: c997 bcbd 40cf e0be 7c39 c2bd 80b2 543e
00000020: 9c10 b3be
0.5207821 -0.41900554 0.05307326 -0.13106738 -0.09208638 -0.4390812 -0.094836205 0.20771217
-0.3497361
