data.pth (torch, 4119 bytes, 6 tensors)

l1.weight f4 [8, 35]
0.13541825 0.24208942 0.75765735 -0.10548824 0.55008686 -0.2713575 -0.10690831 -0.15769616
-0.32129055 -0.1645592 -0.27129108 -0.27137718 0.2862032 -0.27128664 -0.27130747 -0.5733814
-0.007742813 -0.6262527 -0.10009486 -0.35567537 0.18018673 0.18524128 0.295139 0.399088
-0.26736197 -0.25956488 0.45561072 0.38161874 0.21478671 -0.14976978 -0.2673147 -0.12329642
0.6924388 0.36284864 0.65904665 -0.21239074 0.37138033 -0.45989114 0.40166634 0.37456685
-0.5399585 0.16309047 0.42715687 0.46246478 0.16165918 -0.5399599 0.71771604 -0.23102126
0.8210236 0.7766809 0.4734016 0.4552117 0.42145947 0.45219976 -0.28419992 -0.17976482
0.39966553 0.07720727 0.051424053 -0.25584662 0.37711352 0.3993408 -0.5399594 -0.096524045
0.18611102 0.36558655 0.31248754 -0.19950843 8.3880084e-05 -0.29646075 0.22651389 0.36004686
-0.1623987 -0.15813957 0.2061842 0.19224855 -0.09821714 -0.28322193 -0.118167736 -0.27209142
0.20157252 -0.40448788 0.46364 -0.4044455 -0.39820996 -0.31820664 -0.057040945 -0.21991998
-0.31354722 0.09144844 0.37309763 -0.2012421 0.48391923 0.2621601 0.082696624 0.12895322
-0.34330574 0.74431175 0.3917813 0.0115539 -0.33775356 -0.08452978 0.5421674 0.17816313
-0.052520916 0.50570726 0.040937982 0.556187 0.19320369 0.5979424 -0.43463528 0.43061474
-0.29470062 -0.27653545 0.4611912 -0.4346293 0.6571517 -0.0069337697 0.6162524 0.6096686
0.45777178 0.24450377 -0.3875472 -0.09644101 -0.46426883 0.07769454 0.06040059 0.5450283
0.5879641 -0.21971433 -0.107008666 -0.11168893 -0.29095125 -0.009551154 0.18728723 0.4278385
0.49533972 0.72109824 0.24941775 0.75130963 0.20985065 0.029822687 0.28385395 0.22266562
0.29796204 0.8637935 0.04618866 -0.27497622 -0.14243306 0.11706212 0.8952625 0.13671869
-0.38694525 0.3006784 0.3212017 0.307056 0.11513693 -0.35533848 -0.2739821 0.69665134
-0.24364169 0.06475137 0.1971118 0.09138755 0.46600595 -0.28811368 -0.19571032 -0.51167107
-0.34722248 0.03200575 0.39745063 0.40461835 0.54949164 0.1888914 0.23578303 0.3997503
0.5491343 -0.55924314 -0.018816551 -0.37277913 -0.30085325 0.03316955 0.25452188 0.5238636
-0.1850391 -0.2975171 -0.25409505 0.49445024 -0.09839537 -0.124874406 -0.06306535 -0.038942806
0.6646134 0.49386477 -0.37522626 0.42598873 0.4755285 -0.33719373 -0.47407663 -0.1938711
0.43318596 0.44221675 0.5261722 0.34295797 -0.056631427 -0.05256433 -0.33703572 -0.28739896
0.34870362 -0.31731385 0.34610942 0.2957039 -0.21503799 0.39035848 -0.28923437 -0.32020453
0.3059522 0.08737667 0.28763586 0.314397 -0.310315 0.8085734 0.39259696 0.68590075
0.80035245 0.3803538 0.42497215 0.1881174 0.09033582 -0.30567864 0.36020884 0.07714579
-0.27879137 -0.19541042 -0.2383769 0.20489685 0.031547204 0.8439519 0.54537195 0.19624251
0.22332391 0.23069867 -0.0025050433 0.36483422 -0.37051663 0.30075464 -0.112900615 -0.07178978
0.4091117 0.23158097 -0.07735286 0.29054293 -0.038445264 0.055442378 0.47130916 -0.077292755
00000000: 15ab 0a3e 4ae6 773e d5f5 413f 380a d8bd
00000010: 7ed2 0c3f 5fef 8abe bef2 dabd 1a7b 21be
00000020: 3280 a4be 3582 28be aae6 8abe f3f1 8abe
00000030: 3a89 923e 15e6 8abe d0e8 8abe 20c9 12bf
00000040: 6cb7 fdbb 1952 20bf 89fe ccbd 151b b6be
00000050: df82 383e e4af 3d3e 761c 973e 4355 cc3e
00000060: abe3 88be b0e5 84be cf45 e93e 8863 c33e
00000070: 0cf1 5b3e 405d 19be 79dd 88be d582 fcbd
00000080: ab43 313f 4cc7 b93e 48b7 283f f57c 59be
00000090: 9025 be3e da76 ebbe 36a7 cd3e 3ac7 bf3e
000000a0: b83a 0abf 3001 273e 4eb4 da3e 2fc8 ec3e
000000b0: fc89 253e d03a 0abf 3dbc 373f d690 6cbe
000000c0: 9a2e 523f 8fd4 463f b261 f23e 8211 e93e
000000d0: 89c9 d73e ba86 e73e a782 91be 4514 38be
000000e0: f6a0 cc3e d81e 9e3d 07a2 523d 54fe 82be
000000f0: 0615 c13e 6676 cc3e c73a 0abf 66ae c5bd
00000100: e393 3e3e 292e bb3e 5efe 9f3e f04b 4cbe
00000110: c7e8 af38 b4c9 97be 42f3 673e 1058 b83e
00000120: d84b 26be 57ef 21be f321 533e cedc 443e
00000130: 1126 c9bd 7702 91be ed01 f2bd 914f 8bbe
00000140: 0769 4e3e 0919 cfbe 3962 ed3e 7b13 cfbe
00000150: 2de2 cbbe fbeb a2be c4a3 69bd b432 61be
00000160: 4389 a0be 5249 bb3d a706 bf3e 6912 4ebe
00000170: 43c4 f73e d939 863e d95c a93d 500c 043e
00000180: c5c5 afbe 378b 3e3f 8f97 c83e 924c 3d3c
00000190: 09ee acbe f31d adbd 7ccb 0a3f 6570 363e
000001a0: 2c20 57bd 0876 013f 96ae 273d 4562 0e3f
000001b0: 30d7 453e c112 193f 8488 debe 8979 dc3e
000001c0: 00e3 96be 0e96 8dbe 4121 ec3e bb87 debe
000001d0: 183b 283f ad34 e3bb b8c2 1d3f 3e13 1c3f
000001e0: 1061 ea3e 325f 7a3e 966c c6be dd82 c5bd
000001f0: a5b4 edbe 511e 9f3d 9c66 773d fa86 0b3f
00000200: d184 163f cbfc 60be 5c27 dbbd 2abd e4bd
00000210: 90f7 94be 727c 1cbc 39c8 3f3e a60d db3e
00000220: 2b9d fd3e e599 383f 5e67 7f3e d455 403f
00000230: 17e3 563e b54e f43c 4e55 913e 7502 643e
00000240: 7b8e 983e 9221 5d3f 5230 3d3d afc9 8cbe
00000250: f9d9 11be 44be ef3d ec2f 653f fcff 0b3e
00000260: b01d c6be 85f2 993e 8d74 a43e 7236 9d3e
00000270: e9cc eb3d edee b5be 6247 8cbe be57 323f
00000280: 357d 79be 5e9c 843d add7 493e 6529 bb3d
00000290: 5598 ee3e a383 93be 4968 48be e0fc 02bf
000002a0: 25c7 b1be 7618 033d a67e cb3e 232a cf3e
000002b0: 7cab 0c3f bf6c 413e 1b71 713e 12ac cc3e
000002c0: 1194 0c3f 8f2a 0fbf 2b25 9abc e8dc bebe
000002d0: 7009 9abe cbdc 073d b150 823e ed1b 063f
000002e0: e47a 3dbe 2954 98be bf18 82be 9528 fd3e
000002f0: 8383 c9bd 27be ffbd 6828 81bd 7e82 1fbd
00000300: 1b24 2a3f d8db fc3e a81d c0be 321b da3e
00000310: 7978 f33e a8a4 acbe 2cba f2be 2586 46be
00000320: 8dca dd3e 3c6a e23e 39b3 063f 3098 af3e
00000330: 5bf6 67bd b24d 57bd f28f acbe f525 93be
00000340: 4889 b23e f676 a2be 4135 b13e 8066 973e
00000350: eb32 5cbe 11dd c73e 8716 94be d9f1 a3be
00000360: c4a5 9c3e 8af2 b23d 0245 933e a5f8 a03e
00000370: 9ce1 9ebe abfe 4e3f 7802 c93e 3197 2f3f
00000380: e6e3 4c3f bcbd c23e f395 d93e d9a1 403e
00000390: fd01 b93d e981 9cbe 4b6d b83e 9dfe 9d3d
000003a0: bebd 8ebe ab19 48be 1319 74be 7bd0 513e
000003b0: a437 013d 3b0d 583f 7f9d 0b3f ccf3 483e
000003c0: 06af 643e 463c 6c3e a72b 24bb 8dcb ba3e
000003d0: 5bb4 bdbe 83fc 993e 7038 e7bd 8506 93bd
000003e0: 1777 d13e 9023 6d3e 2d6b 9ebd 0bc2 943e
000003f0: c878 1dbd 8c17 633d 6f4f f13e aa4b 9ebd

l1.bias f4 [8]
0.2713796 0.5399699 0.40446 0.43462786 0.68510914 0.31044507 0.7420847 0.07709732
00000000: 44f2 8a3e 783b 0a3f 6215 cf3e 8b87 de3e
00000010: 5063 2f3f a8f2 9e3e 43f9 3d3f 33e5 9d3d

l2.weight f4 [8, 8]
0.31038147 -1.134315 1.1540473 -0.66263485 0.5542899 0.2204017 0.62089187 -0.34657434
0.76176834 -0.1532543 0.6999044 0.29660624 -0.5492891 1.0729538 0.7226744 -0.43966725
0.41404146 0.5714602 -0.12853171 0.7448538 1.2333261 -0.8257258 -0.09201441 0.043746673
-0.96070844 0.28229415 -0.48310393 0.37060136 1.0743215 -0.6655496 0.36833924 0.7522177
-0.8073029 0.94712085 -0.5430754 0.38615748 -0.3845337 1.1211479 1.3714842 0.72235644
0.4408275 -0.20520008 0.566671 1.3977168 -0.3842705 -0.16054146 0.741323 0.8062557
-0.9261275 0.9066334 -0.55375 -0.020076996 0.54579556 0.9333392 0.6138769 0.80829304
0.76202077 0.09442872 -0.06063914 0.73735756 -0.06826547 -0.62780064 0.57812923 0.63872993
00000000: 52ea 9e3e 3c31 91bf d2b7 933f 70a2 29bf
00000010: f1e5 0d3f fcb0 613e c5f2 1e3f 3172 b1be
00000020: 4003 433f b2ee 1cbe ef2c 333f c6dc 973e
00000030: 369e 0cbf 8d56 893f 3101 393f 111c e1be
00000040: 3efd d33e 374b 123f d19d 03be bdae 3e3f
00000050: a1dd 9d3f c462 53bf 0d72 bcbd b62f 333d
00000060: fdf0 75bf dc88 903e 6659 f7be 76bf bd3e
00000070: 5e83 893f 7561 2abf f696 bc3e 5791 403f
00000080: 67ab 4ebf 8376 723f fd06 0bbf 6fb6 c53e
00000090: 9ae1 c4be c681 8f3f cb8c af3f 5aec 383f
000000a0: 24b4 e13e f81f 52be 5a11 113f 62e8 b23f
000000b0: 1abf c4be fb64 24be 58c7 3d3f c666 4e3f
000000c0: b116 6dbf 2019 683f 8fc2 0dbf 8378 a4bc
000000d0: 42b9 0b3f 51ef 6e3f 0927 1d3f 4bec 4e3f
000000e0: cb13 433f d863 c13d bf60 78bd 77c3 3c3f
000000f0: c4ce 8bbd 8bb7 20bf 4700 143f ce83 233f

l2.bias f4 [8]
0.7599829 0.11804864 0.39319816 0.5295287 0.33024648 -0.05402286 0.58519197 0.14563203
00000000: 3d8e 423f 7cc3 f13d 4551 c93e 318f 073f
00000010: 1116 a93e 1347 5dbd 24cf 153f 9020 153e

l3.weight f4 [5, 8]
-0.29385903 0.37850976 0.7950664 -1.0198864 -0.91515213 0.4304474 -0.7949476 0.5829334
-0.80324763 0.52110976 -0.77015793 -1.1821389 0.5235734 -0.8733264 0.5653646 -0.8339384
0.90420455 -1.0685683 0.38822946 0.6634281 -0.9961679 -1.3147867 0.20974758 -0.021532966
-1.0664667 -1.0012362 0.05117294 0.52828187 0.38123518 0.34285277 0.22338575 0.3017338
0.69549453 0.6805123 -1.0540892 -0.9638685 -0.071635455 0.45133483 -0.42321312 0.007254382
00000000: b174 96be 08cc c13e 7989 4b3f a38b 82bf
00000010: 6947 6abf 9a63 dc3e b081 4bbf 203b 153f
00000020: a3a1 4dbf 7367 053f 1229 45bf 5450 97bf
00000030: e808 063f 5292 5fbf bcbb 103f fd7c 55bf
00000040: f379 673f d9c6 88bf 03c6 c63e 6dd6 293f
00000050: dc04 7fbf ee4a a8bf 12c8 563e e765 b0bc
00000060: fb81 88bf 8228 80bf b79a 513d 7b3d 073f
00000070: 4231 c33e 668a af3e 3cbf 643e da7c 9a3e
00000080: ee0b 323f 0e36 2e3f 65ec 86bf 16c0 76bf
00000090: 9cb5 92bd 5c15 e73e 64af d8be 2bb6 ed3b

l3.bias f4 [5]
-0.43558872 -0.090101674 0.3801165 0.062505215 0.095867045
00000000: 7c05 dfbe 3a87 b8bd a19e c23e bc02 803d
00000010: f155 c43d
